app/src/main/ml/gru_classifier_metadata.tflite (tflite, 183974 bytes, 20 tensors)

sequential_1/dense/BiasAdd/ReadVariableOp f4 [3]
0	0x3bcf75ca	0.00633118
1	0x3ab4bf74	0.0013789968
2	0xbbd61c98	-0.0065341704

unstack f4 [192]
0	0xbdc2c3b2	-0.09509982
1	0xbd4ef68d	-0.050528098
2	0xbdc58630	-0.09644735
3	0xbdbb0db1	-0.09133471
4	0xbdb43e92	-0.08800997
5	0xbdb78383	-0.08960631
6	0xbd7e077f	-0.062018868
7	0x3d1b7b13	0.03795917
8	0xbd5072c4	-0.0508907
9	0xbda3acc3	-0.07991936
10	0xbdba54e9	-0.090982266
11	0xbdbd781a	-0.09251423
12	0x3d0c70b6	0.034287177
13	0xbdc784be	-0.097421154
14	0xbdb6c798	-0.08924788
15	0x3d8f68eb	0.070024334
16	0x3c9c9ff2	0.019119237
17	0xbdb65cd9	-0.08904428
18	0xbdbdb161	-0.09262348
19	0xbdccf24c	-0.10007152
20	0xbdc87da8	-0.09789592
21	0xbcf6c52e	-0.03012332
22	0xbdde5e7f	-0.108578674
23	0xbce77fca	-0.028259177
24	0x3d755cb3	0.059902858
25	0xbd335f85	-0.043792266
26	0xbd98c998	-0.07460326
27	0x3cb68824	0.022281714
28	0x3d16d6b3	0.036825847
29	0xbc581786	-0.013189202
30	0xbd948388	-0.0725165
31	0x3c72cc17	0.014819167
32	0xbd81a02c	-0.063293785
33	0x3d362b49	0.044474874
34	0x3cf0344d	0.029321814
35	0xbd647736	-0.05577775
36	0xbd8b2e7b	-0.06795975
37	0xbc4455ee	-0.011983378
38	0xbd3ca95f	-0.046059962
39	0x3cf72185	0.03016735
40	0x3c862af1	0.016377898
41	0xbdc390dc	-0.09549114
42	0x3d56f7b2	0.052482314
43	0xbda5fa74	-0.08104411
44	0xbdb81645	-0.089886226
45	0xbda6aec0	-0.081388
46	0xbc73511c	-0.014850881
47	0xbdcfb181	-0.10141278
48	0xbd33d689	-0.04390577
49	0xbdc2b061	-0.09506298
50	0xbc2c3a3b	-0.01051193
51	0xbd9047ba	-0.07044931
52	0x3d4d9d03	0.050198566
53	0xbd890475	-0.06690303
54	0xbdcc22f8	-0.09967607
55	0xbd84b404	-0.06479648
56	0x3a757268	0.0009363056
57	0x3cf07a5c	0.02935522
58	0xbd9f8d9c	-0.07790682
59	0xbdbd60df	-0.09246992
60	0xbcffd37e	-0.031228777
61	0xbc1fa307	-0.009743459
62	0x3bb67e44	0.0055692513
63	0xbd962e23	-0.07333019
64	0xbbf52fcc	-0.0074825045
65	0x3cca0552	0.02466074
66	0x3d490118	0.04907331
67	0x3d2b3f66	0.04180851
68	0xbc43b028	-0.011943854
69	0x3cae5a3d	0.021283263
70	0x3bf3fbd7	0.007445793
71	0x3cbf6aa6	0.023366284
72	0x3cf21de9	0.029555278
73	0xba1dbdb7	-0.00060173444
74	0x3c1b2bfa	0.009470934
75	0xbc671cb2	-0.014105963
76	0x3d953d14	0.0728704
77	0x3cffbba8	0.031217411
78	0x3cc21628	0.023692206
79	0x3d16fea0	0.036863923
80	0x3c6bda76	0.014395347
81	0x3d130796	0.035895906
82	0x3c47130b	0.012150536
83	0x3d1a8fd0	0.037734807
84	0x3adf7660	0.0017048828
85	0xbc100921	-0.008791239
86	0x3d1919ba	0.03737805
87	0x3d8614b5	0.06546918
88	0x3cbd4000	0.023101807
89	0x3c8f35ba	0.017481674
90	0x3d92ede5	0.07174281
91	0xbd69fd6c	-0.057126448
92	0x3d1139e8	0.035455614
93	0xbaffef5e	-0.0019526293
94	0x3c69762f	0.014249369
95	0x3982c4ab	0.0002494206
96	0x3cd56a2d	0.026051605
97	0x3cf20499	0.029543208
98	0x3cc64d07	0.024206651
99	0x3bad0bb8	0.005280938
100	0xba6b7f1c	-0.00089834793
101	0x3c0537f4	0.008131016
102	0x3ce2b0e2	0.027672235
103	0x3b632f40	0.0034665614
104	0x3c83763a	0.016047586
105	0x3d84bd41	0.0648141
106	0x3c954c54	0.018224873
107	0xbc32e1b9	-0.010918074
108	0xbcece309	-0.028916853
109	0x3c1c1594	0.009526629
110	0xbbc6816f	-0.00605791
111	0x3d21b4dd	0.039479125
112	0xbc4af9a1	-0.012388618
113	0x3ce2b5f4	0.027674653
114	0xbb58b0a1	-0.0033064263
115	0x3c503727	0.012708462
116	0xbd0b970e	-0.034079604
117	0xbb93d38f	-0.0045113037
118	0x3c67b759	0.014142835
119	0x3b02da69	0.0019966608
120	0x3d352794	0.044227198
121	0x3d0ee935	0.034890372
122	0x3c302bc2	0.01075262
123	0x3a0644c1	0.00051219395
124	0xbbdd92ba	-0.006761876
125	0x3ca22e99	0.01979761
126	0x3cd1c661	0.02560729
127	0xba6820b6	-0.0008854972
128	0xbbe2aeec	-0.006917825
129	0xbb8a98d4	-0.0042296443
130	0x3b629d69	0.0034578687
131	0xbc24a858	-0.010049902
132	0x3bec3ceb	0.0072094104
133	0xbc2ab4b1	-0.010419057
134	0xbb3e8cf7	-0.002907572
135	0xbb92f92d	-0.0044852705
136	0x3ca655fb	0.02030467
137	0xbb0c9697	-0.0021452063
138	0xbb1c4340	-0.0023843795
139	0xbbee2b3d	-0.007268338
140	0xbc6c4b13	-0.014422196
141	0x3b23a180	0.0024968088
142	0xbbc09216	-0.00587679
143	0x3b16683d	0.0022950314
144	0xbbd9afaf	-0.0066432576
145	0xbc460aa3	-0.012087497
146	0x3bf8ba92	0.0075906003
147	0x3c2ccc8b	0.010546814
148	0x3ba7c0c7	0.0051194164
149	0x3c0c546f	0.008565052
150	0x3b720b51	0.0036933015
151	0xbca255d5	-0.019816319
152	0xbbd5af2c	-0.0065211263
153	0xbb076425	-0.0020659056
154	0xbc22e41a	-0.009942079
155	0x3a5f4ea7	0.0008518495
156	0xbcbef958	-0.023312256
157	0x3bba4a2d	0.005685112
158	0xba224ad5	-0.00061909604
159	0x3ad10a0f	0.0015948432
160	0x3c4bd74f	0.01244147
161	0xbc0e3df4	-0.008681763
162	0xbc52550d	-0.0128376605
163	0x3c87caea	0.01657625
164	0xbb792fc2	-0.003802285
165	0x3bf00029	0.007324238
166	0x3b3b5fe9	0.0028591102
167	0xbaaac280	-0.0013027936
168	0x3be0af92	0.006856867
169	0x3ad661f1	0.0016356093
170	0x3b007ba8	0.0019604955
171	0x3c1184e9	0.008881786
172	0x3bc06ddb	0.005872471
173	0x369f852a	4.7540716e-06
174	0xbba418cc	-0.005007839
175	0x3c355277	0.011067024
176	0xbbb4c91d	-0.0055171386
177	0xbbad10d4	-0.005281547
178	0x3bf85726	0.0075787483
179	0xbc76c28f	-0.015061035
180	0x3c6b53eb	0.014363269
181	0x3b37f112	0.0028067273
182	0x3c112a41	0.008860172
183	0xbae314ef	-0.0017324964
184	0xbb428d53	-0.0029686287
185	0xbb3319a5	-0.0027328518
186	0xbc38ea6b	-0.011286358
187	0x3b4b2f96	0.0031003705
188	0x3aa57f67	0.001262647
189	0xbc30d4c1	-0.010792912
190	0xbaa71f39	-0.0012750394
191	0xbbeb8656	-0.007187645

unstack1 f4 [192]
0	0xbdc2c3b2	-0.09509982
1	0xbd4ef68d	-0.050528098
2	0xbdc58630	-0.09644735
3	0xbdbb0db1	-0.09133471
4	0xbdb43e92	-0.08800997
5	0xbdb78383	-0.08960631
6	0xbd7e077f	-0.062018868
7	0x3d1b7b13	0.03795917
8	0xbd5072c4	-0.0508907
9	0xbda3acc3	-0.07991936
10	0xbdba54e9	-0.090982266
11	0xbdbd781a	-0.09251423
12	0x3d0c70b6	0.034287177
13	0xbdc784be	-0.097421154
14	0xbdb6c798	-0.08924788
15	0x3d8f68eb	0.070024334
16	0x3c9c9ff2	0.019119237
17	0xbdb65cd9	-0.08904428
18	0xbdbdb161	-0.09262348
19	0xbdccf24c	-0.10007152
20	0xbdc87da8	-0.09789592
21	0xbcf6c52e	-0.03012332
22	0xbdde5e7f	-0.108578674
23	0xbce77fca	-0.028259177
24	0x3d755cb3	0.059902858
25	0xbd335f85	-0.043792266
26	0xbd98c998	-0.07460326
27	0x3cb68824	0.022281714
28	0x3d16d6b3	0.036825847
29	0xbc581786	-0.013189202
30	0xbd948388	-0.0725165
31	0x3c72cc17	0.014819167
32	0xbd81a02c	-0.063293785
33	0x3d362b49	0.044474874
34	0x3cf0344d	0.029321814
35	0xbd647736	-0.05577775
36	0xbd8b2e7b	-0.06795975
37	0xbc4455ee	-0.011983378
38	0xbd3ca95f	-0.046059962
39	0x3cf72185	0.03016735
40	0x3c862af1	0.016377898
41	0xbdc390dc	-0.09549114
42	0x3d56f7b2	0.052482314
43	0xbda5fa74	-0.08104411
44	0xbdb81645	-0.089886226
45	0xbda6aec0	-0.081388
46	0xbc73511c	-0.014850881
47	0xbdcfb181	-0.10141278
48	0xbd33d689	-0.04390577
49	0xbdc2b061	-0.09506298
50	0xbc2c3a3b	-0.01051193
51	0xbd9047ba	-0.07044931
52	0x3d4d9d03	0.050198566
53	0xbd890475	-0.06690303
54	0xbdcc22f8	-0.09967607
55	0xbd84b404	-0.06479648
56	0x3a757268	0.0009363056
57	0x3cf07a5c	0.02935522
58	0xbd9f8d9c	-0.07790682
59	0xbdbd60df	-0.09246992
60	0xbcffd37e	-0.031228777
61	0xbc1fa307	-0.009743459
62	0x3bb67e44	0.0055692513
63	0xbd962e23	-0.07333019
64	0xbbf52fcc	-0.0074825045
65	0x3cca0552	0.02466074
66	0x3d490118	0.04907331
67	0x3d2b3f66	0.04180851
68	0xbc43b028	-0.011943854
69	0x3cae5a3d	0.021283263
70	0x3bf3fbd7	0.007445793
71	0x3cbf6aa6	0.023366284
72	0x3cf21de9	0.029555278
73	0xba1dbdb7	-0.00060173444
74	0x3c1b2bfa	0.009470934
75	0xbc671cb2	-0.014105963
76	0x3d953d14	0.0728704
77	0x3cffbba8	0.031217411
78	0x3cc21628	0.023692206
79	0x3d16fea0	0.036863923
80	0x3c6bda76	0.014395347
81	0x3d130796	0.035895906
82	0x3c47130b	0.012150536
83	0x3d1a8fd0	0.037734807
84	0x3adf7660	0.0017048828
85	0xbc100921	-0.008791239
86	0x3d1919ba	0.03737805
87	0x3d8614b5	0.06546918
88	0x3cbd4000	0.023101807
89	0x3c8f35ba	0.017481674
90	0x3d92ede5	0.07174281
91	0xbd69fd6c	-0.057126448
92	0x3d1139e8	0.035455614
93	0xbaffef5e	-0.0019526293
94	0x3c69762f	0.014249369
95	0x3982c4ab	0.0002494206
96	0x3cd56a2d	0.026051605
97	0x3cf20499	0.029543208
98	0x3cc64d07	0.024206651
99	0x3bad0bb8	0.005280938
100	0xba6b7f1c	-0.00089834793
101	0x3c0537f4	0.008131016
102	0x3ce2b0e2	0.027672235
103	0x3b632f40	0.0034665614
104	0x3c83763a	0.016047586
105	0x3d84bd41	0.0648141
106	0x3c954c54	0.018224873
107	0xbc32e1b9	-0.010918074
108	0xbcece309	-0.028916853
109	0x3c1c1594	0.009526629
110	0xbbc6816f	-0.00605791
111	0x3d21b4dd	0.039479125
112	0xbc4af9a1	-0.012388618
113	0x3ce2b5f4	0.027674653
114	0xbb58b0a1	-0.0033064263
115	0x3c503727	0.012708462
116	0xbd0b970e	-0.034079604
117	0xbb93d38f	-0.0045113037
118	0x3c67b759	0.014142835
119	0x3b02da69	0.0019966608
120	0x3d352794	0.044227198
121	0x3d0ee935	0.034890372
122	0x3c302bc2	0.01075262
123	0x3a0644c1	0.00051219395
124	0xbbdd92ba	-0.006761876
125	0x3ca22e99	0.01979761
126	0x3cd1c661	0.02560729
127	0xba6820b6	-0.0008854972
128	0xbc067a53	-0.008207875
129	0xbb098ed8	-0.0020989683
130	0x3bdd2e4c	0.006749904
131	0xbbdb5e98	-0.006694626
132	0x3b60765a	0.003425023
133	0xbc2aaf2a	-0.010417739
134	0xba89dae8	-0.001051751
135	0xbbb45b18	-0.0055040233
136	0x3c8f3280	0.017480135
137	0xb944f191	-0.00018782007
138	0xbc0c89fe	-0.008577822
139	0xbac9aef5	-0.0015387224
140	0xbc7cb3c5	-0.01542372
141	0xba483416	-0.0007637156
142	0xbba4f8ce	-0.0050345426
143	0x3abc8ef6	0.0014385867
144	0xbb88dfa2	-0.0041770497
145	0xbc2a4d47	-0.010394401
146	0x3a0a3124	0.0005271605
147	0x3bbff5e3	0.0058581694
148	0x3b868e7d	0.0041063414
149	0x3ba1baa8	0.0049355812
150	0x3b8aa372	0.00423091
151	0xbc76d7fd	-0.015066144
152	0xb8ef22e0	-0.00011402904
153	0x3aabe157	0.0013113421
154	0xbc33ede1	-0.010982008
155	0xbba6b8c9	-0.005087946
156	0xbcb2bf1c	-0.021819644
157	0x3b84c0aa	0.0040512877
158	0x3a90630f	0.001101585
159	0xbad501be	-0.001625113
160	0x3bef18bf	0.007296651
161	0xbbd17a2b	-0.0063927374
162	0xbc55edc0	-0.013057172
163	0x3c571f43	0.013130012
164	0xbb6c99c8	-0.0036102403
165	0x3b9ae4ba	0.0047269734
166	0x3b3ad1a5	0.0028506306
167	0xbacb9ad4	-0.0015533813
168	0x3b349612	0.002755527
169	0x3c37026e	0.011170013
170	0x39453b7c	0.00018809544
171	0x3c02eaf8	0.007990591
172	0x3b9aec2f	0.0047278623
173	0x3ab290c8	0.001362347
174	0xbb970600	-0.0046088696
175	0x3c07ad05	0.008280997
176	0xbbc0d954	-0.0058852825
177	0xbbafad64	-0.005361246
178	0x3bb8360a	0.0056216763
179	0xbc12fac7	-0.008970923
180	0x3c5ec54b	0.013596843
181	0x3b0047b5	0.001957399
182	0x3c04969b	0.008092548
183	0xba0873f0	-0.00052052643
184	0xbb8bf4b1	-0.004271113
185	0xbb656c9c	-0.0035007363
186	0xbc40775b	-0.011747207
187	0x395f52e3	0.00021297815
188	0xbad27737	-0.0016057257
189	0xbc3ef16e	-0.011654241
190	0xbb135d16	-0.0022485903
191	0xbb87e7bd	-0.0041474984

unstack2 f4 [96]
0	0xbdc27371	-0.09494675
1	0xbcc18ad2	-0.023625765
2	0xbc01752f	-0.007901474
3	0xbde19334	-0.11014405
4	0x3d46f1a0	0.048570275
5	0xbdf259c5	-0.118335284
6	0x3c9cbcab	0.019132933
7	0xbdce7df3	-0.10082617
8	0x3d33e1e9	0.043916617
9	0xbd31a80e	-0.04337316
10	0xbdcfb2f6	-0.10141556
11	0xbd03b8f5	-0.03215881
12	0x3c9c04f4	0.01904533
13	0xbdea2b2b	-0.11434015
14	0x3d59adbf	0.053144213
15	0xbdf097d4	-0.11747709
16	0xbdd6cb70	-0.104880214
17	0xbd24e4db	-0.040257316
18	0xbdb1a3b6	-0.086738035
19	0x3dcfa4ed	0.10138879
20	0xbdd515bb	-0.104045354
21	0xbd4ffe6a	-0.050779738
22	0xbde28ffb	-0.11062618
23	0xbe00af89	-0.12566961
24	0xbe04ebdb	-0.12980597
25	0xbdece260	-0.11566615
26	0x3beecba3	0.007287459
27	0xbdf9147b	-0.121621095
28	0xbd2a3af4	-0.04156013
29	0xbde67e87	-0.11254602
30	0xbe0692ca	-0.13141933
31	0xbdf7665f	-0.120800726
32	0xbc71cfb0	-0.014758989
33	0x3b54e5eb	0.0032485675
34	0x3d02e734	0.031958774
35	0xbc3a27c7	-0.011362023
36	0x3d230e69	0.039808664
37	0x3c6a9dc5	0.014319842
38	0x3c893170	0.016747206
39	0x3c6cf06b	0.014461617
40	0x3c258a34	0.010103751
41	0xbc395669	-0.011312106
42	0x3c9957fc	0.018718712
43	0xbc934ed0	-0.017981917
44	0x3cfed30c	0.031106494
45	0xba09f5ab	-0.00052627426
46	0x3bc7979c	0.0060910713
47	0x3d181941	0.03713346
48	0x3d06ed9e	0.032941453
49	0x3cab8723	0.020938462
50	0x3baf4097	0.005348276
51	0xbd016939	-0.03159449
52	0x3cddc7b6	0.027072769
53	0x3d0986d8	0.033575863
54	0x3d120775	0.035651643
55	0x3ceda674	0.029010035
56	0x3ce7d8c9	0.028301613
57	0x3d6323ac	0.05545394
58	0x3ca3a295	0.019974986
59	0xbbd2f819	-0.006438267
60	0x3d0737d6	0.033012234
61	0x3d2ab878	0.04167983
62	0xbcb0fd83	-0.021605259
63	0x3c804210	0.015656501
64	0xbbc44bfd	-0.005990504
65	0xbc409cc0	-0.011756122
66	0x3ca3c7c1	0.019992711
67	0x3b9d40ca	0.004798983
68	0xbc26578b	-0.010152708
69	0x3b558524	0.0032580579
70	0xbbd83435	-0.0065980204
71	0x3c9c65d6	0.019091528
72	0xba624e18	-0.00086328527
73	0x3b4b6b8e	0.003103945
74	0x3bd70fef	0.0065631787
75	0xbc04a1d7	-0.008095226
76	0x3bbe0043	0.005798371
77	0xbc3ab679	-0.011396044
78	0xbbe34f7d	-0.006936966
79	0xbb17ab57	-0.0023142898
80	0xbb151411	-0.0022747556
81	0xbbe5b518	-0.0070101134
82	0xbb1ae955	-0.0023637612
83	0x3b446082	0.002996475
84	0xbc582d08	-0.01319433
85	0xbc75543f	-0.014973699
86	0x3bf9df27	0.007625479
87	0xbbbe3c2f	-0.0058055143
88	0xbc18924c	-0.009312224
89	0xbb067913	-0.0020518943
90	0x3c0d355b	0.008618678
91	0xbb383284	-0.0028106282
92	0x3c1ec2d0	0.009690002
93	0xbc204b03	-0.009783509
94	0x3b6f6eb4	0.003653449
95	0xbc2bb1a4	-0.010479365

unstack3 f4 [96]
0	0xbdc27371	-0.09494675
1	0xbcc18ad2	-0.023625765
2	0xbc01752f	-0.007901474
3	0xbde19334	-0.11014405
4	0x3d46f1a0	0.048570275
5	0xbdf259c5	-0.118335284
6	0x3c9cbcab	0.019132933
7	0xbdce7df3	-0.10082617
8	0x3d33e1e9	0.043916617
9	0xbd31a80e	-0.04337316
10	0xbdcfb2f6	-0.10141556
11	0xbd03b8f5	-0.03215881
12	0x3c9c04f4	0.01904533
13	0xbdea2b2b	-0.11434015
14	0x3d59adbf	0.053144213
15	0xbdf097d4	-0.11747709
16	0xbdd6cb70	-0.104880214
17	0xbd24e4db	-0.040257316
18	0xbdb1a3b6	-0.086738035
19	0x3dcfa4ed	0.10138879
20	0xbdd515bb	-0.104045354
21	0xbd4ffe6a	-0.050779738
22	0xbde28ffb	-0.11062618
23	0xbe00af89	-0.12566961
24	0xbe04ebdb	-0.12980597
25	0xbdece260	-0.11566615
26	0x3beecba3	0.007287459
27	0xbdf9147b	-0.121621095
28	0xbd2a3af4	-0.04156013
29	0xbde67e87	-0.11254602
30	0xbe0692ca	-0.13141933
31	0xbdf7665f	-0.120800726
32	0xbc71cfb0	-0.014758989
33	0x3b54e5eb	0.0032485675
34	0x3d02e734	0.031958774
35	0xbc3a27c7	-0.011362023
36	0x3d230e69	0.039808664
37	0x3c6a9dc5	0.014319842
38	0x3c893170	0.016747206
39	0x3c6cf06b	0.014461617
40	0x3c258a34	0.010103751
41	0xbc395669	-0.011312106
42	0x3c9957fc	0.018718712
43	0xbc934ed0	-0.017981917
44	0x3cfed30c	0.031106494
45	0xba09f5ab	-0.00052627426
46	0x3bc7979c	0.0060910713
47	0x3d181941	0.03713346
48	0x3d06ed9e	0.032941453
49	0x3cab8723	0.020938462
50	0x3baf4097	0.005348276
51	0xbd016939	-0.03159449
52	0x3cddc7b6	0.027072769
53	0x3d0986d8	0.033575863
54	0x3d120775	0.035651643
55	0x3ceda674	0.029010035
56	0x3ce7d8c9	0.028301613
57	0x3d6323ac	0.05545394
58	0x3ca3a295	0.019974986
59	0xbbd2f819	-0.006438267
60	0x3d0737d6	0.033012234
61	0x3d2ab878	0.04167983
62	0xbcb0fd83	-0.021605259
63	0x3c804210	0.015656501
64	0x3b90070c	0.0043953713
65	0xbc7a8e4c	-0.015292715
66	0x3cc5269f	0.024066268
67	0x3a5c22ba	0.00083975086
68	0xbb8cab20	-0.0042928606
69	0xb9ca85a8	-0.00038628024
70	0xbbc2a2c1	-0.005939812
71	0x3c32389d	0.0108777555
72	0x3b7a57e6	0.0038199364
73	0x3b1b508c	0.0023699133
74	0x3b04ff59	0.00202938
75	0xbbb73183	-0.005590619
76	0x3b62173f	0.003449872
77	0xbbe11833	-0.00686934
78	0xbb57d7f3	-0.0032935112
79	0xbab8f2d7	-0.0014110458
80	0x3ae4fa88	0.0017469684
81	0xbbcbf346	-0.006224069
82	0x3bb4f605	0.005522492
83	0xbaebdde9	-0.0017995212
84	0xbc7927b6	-0.015207222
85	0xbc990ddc	-0.018683366
86	0x3bdf0f22	0.006807224
87	0xb8d2a9a9	-0.00010045182
88	0xbbbbfe73	-0.00573712
89	0x3a1b727d	0.0005929841
90	0x3bede67a	0.007260141
91	0xbacecb09	-0.0015777062
92	0x3bef9729	0.007311721
93	0x3958ab9a	0.00020663292
94	0x3c21b028	0.009868659
95	0xba88bf35	-0.0010432961

unstack4 f4 [96]
0	0xbe1ab8cd	-0.15109558
1	0x3d1720ff	0.036896702
2	0x3d891693	0.06693759
3	0xbdc44ff1	-0.0958556
4	0xbc963f90	-0.018340856
5	0x3da6a84c	0.08137569
6	0xbdb2ad9c	-0.087245196
7	0xbe021188	-0.12702
8	0x3d113002	0.035446174
9	0xbdec7bdc	-0.11547062
10	0xbdf176a2	-0.117902055
11	0xbd70aaa8	-0.0587565
12	0xbcce3062	-0.025169555
13	0xbcee5842	-0.029094819
14	0x3da98e57	0.08279102
15	0xbcdbeedc	-0.026847295
16	0x3d0aa42f	0.033847984
17	0x3d9c928f	0.07645141
18	0xbe00f1aa	-0.12592188
19	0xbe20382c	-0.15646428
20	0x3d843d6f	0.0645703
21	0xbd695408	-0.056964904
22	0xbde22afc	-0.11043355
23	0xbdc4fcdc	-0.096185416
24	0x3e025283	0.12726788
25	0x3db18b85	0.08669189
26	0xbd81f4f1	-0.06345547
27	0xbda07880	-0.078354836
28	0xbde3df13	-0.111265324
29	0xbdf46fc0	-0.11935377
30	0xbdc1493d	-0.09437797
31	0x3c3756fa	0.01119017
32	0x3ccb2d13	0.024801766
33	0x3cd3cbca	0.02585401
34	0x3d334803	0.043769848
35	0x3ba0269a	0.004887414
36	0xbd1c861e	-0.03821384
37	0xbc22e16b	-0.009941439
38	0x3cfd944f	0.030954508
39	0x3caf9c18	0.021436736
40	0x3d15e1f5	0.036592443
41	0xbc80275a	-0.015643764
42	0x3c5d2b65	0.013499116
43	0x3ccd6f87	0.025077594
44	0x3ce58e22	0.028021876
45	0x3d515abe	0.05111193
46	0x3c8402c0	0.016114593
47	0x3d2bb658	0.041921943
48	0x3c816df2	0.015799496
49	0xbd39041a	-0.045169927
50	0x3a54f7bf	0.0008124075
51	0x3c885e27	0.016646458
52	0x3c0875a6	0.008328831
53	0x3d6312bc	0.05543779
54	0x3b0bd5db	0.0021337185
55	0x3caaa976	0.020832758
56	0xbd19a551	-0.037511174
57	0xbc877825	-0.016536782
58	0xbb14be6c	-0.0022696508
59	0x3d3647dc	0.044502124
60	0x3c84f83e	0.016231652
61	0x3b3790e0	0.0028009936
62	0xbb6bdf66	-0.003599131
63	0x3d31eeda	0.043440677
64	0x3bc2a9e0	0.005940661
65	0xbba4b8ae	-0.0050268983
66	0x3bf13beb	0.007361879
67	0x3b96da89	0.004603688
68	0xbc855a1b	-0.016278317
69	0xbbf6721c	-0.007520927
70	0x3ad9ab43	0.0016606826
71	0xbbd74802	-0.0065698633
72	0xbb79ed9f	-0.0038136018
73	0xbb8b5bd7	-0.0042528915
74	0xbc161aae	-0.009161634
75	0xbba3e4e2	-0.00500165
76	0x3caad5cb	0.020853898
77	0xb7a3f9dd	-1.9547466e-05
78	0xbaa5fb68	-0.0012663426
79	0x3bebe52d	0.0071989507
80	0xbc202b09	-0.009775885
81	0xbc73abf7	-0.014872543
82	0xbb8738da	-0.0041266503
83	0xbb566bf2	-0.003271815
84	0xbc2f1d0b	-0.010688077
85	0x3a4d6d79	0.0007836442
86	0x3b039ff5	0.0020084355
87	0xbacb4310	-0.0015507657
88	0xbc19f410	-0.009396568
89	0x3b4b93cb	0.0031063433
90	0xbc3ae397	-0.011406801
91	0x3a1f99e3	0.00060882996
92	0x3a07d5f5	0.00051817234
93	0xbbe2b27e	-0.0069182506
94	0x3c33da8d	0.0109774
95	0xbb0d706b	-0.00215819

unstack5 f4 [96]
0	0xbe1ab8cd	-0.15109558
1	0x3d1720ff	0.036896702
2	0x3d891693	0.06693759
3	0xbdc44ff1	-0.0958556
4	0xbc963f90	-0.018340856
5	0x3da6a84c	0.08137569
6	0xbdb2ad9c	-0.087245196
7	0xbe021188	-0.12702
8	0x3d113002	0.035446174
9	0xbdec7bdc	-0.11547062
10	0xbdf176a2	-0.117902055
11	0xbd70aaa8	-0.0587565
12	0xbcce3062	-0.025169555
13	0xbcee5842	-0.029094819
14	0x3da98e57	0.08279102
15	0xbcdbeedc	-0.026847295
16	0x3d0aa42f	0.033847984
17	0x3d9c928f	0.07645141
18	0xbe00f1aa	-0.12592188
19	0xbe20382c	-0.15646428
20	0x3d843d6f	0.0645703
21	0xbd695408	-0.056964904
22	0xbde22afc	-0.11043355
23	0xbdc4fcdc	-0.096185416
24	0x3e025283	0.12726788
25	0x3db18b85	0.08669189
26	0xbd81f4f1	-0.06345547
27	0xbda07880	-0.078354836
28	0xbde3df13	-0.111265324
29	0xbdf46fc0	-0.11935377
30	0xbdc1493d	-0.09437797
31	0x3c3756fa	0.01119017
32	0x3ccb2d13	0.024801766
33	0x3cd3cbca	0.02585401
34	0x3d334803	0.043769848
35	0x3ba0269a	0.004887414
36	0xbd1c861e	-0.03821384
37	0xbc22e16b	-0.009941439
38	0x3cfd944f	0.030954508
39	0x3caf9c18	0.021436736
40	0x3d15e1f5	0.036592443
41	0xbc80275a	-0.015643764
42	0x3c5d2b65	0.013499116
43	0x3ccd6f87	0.025077594
44	0x3ce58e22	0.028021876
45	0x3d515abe	0.05111193
46	0x3c8402c0	0.016114593
47	0x3d2bb658	0.041921943
48	0x3c816df2	0.015799496
49	0xbd39041a	-0.045169927
50	0x3a54f7bf	0.0008124075
51	0x3c885e27	0.016646458
52	0x3c0875a6	0.008328831
53	0x3d6312bc	0.05543779
54	0x3b0bd5db	0.0021337185
55	0x3caaa976	0.020832758
56	0xbd19a551	-0.037511174
57	0xbc877825	-0.016536782
58	0xbb14be6c	-0.0022696508
59	0x3d3647dc	0.044502124
60	0x3c84f83e	0.016231652
61	0x3b3790e0	0.0028009936
62	0xbb6bdf66	-0.003599131
63	0x3d31eeda	0.043440677
64	0x3b2f35fa	0.0026735053
65	0xbc3006e7	-0.010743833
66	0x3c025cf5	0.007956733
67	0xbb40a51f	-0.0029395295
68	0xbc1c38c9	-0.009535023
69	0xbbed4815	-0.007241259
70	0x3b16bbef	0.00230002
71	0xbab1ce1e	-0.0013565456
72	0xbba37127	-0.004987854
73	0x3bada841	0.0052995984
74	0xbc9924f6	-0.018694382
75	0xbaeee009	-0.0018224727
76	0x3c35c855	0.011095126
77	0xbad645eb	-0.0016347741
78	0xbb68cf8f	-0.0035524105
79	0x3c1c62ab	0.009545009
80	0xbbd87c9e	-0.0066066524
81	0xbc0b5ec5	-0.008506482
82	0xbc3ae612	-0.011407392
83	0x3b633429	0.003466854
84	0xbbcc48a7	-0.006234247
85	0xbbd069de	-0.0063602766
86	0xbc015257	-0.0078931665
87	0xbba6f50f	-0.005095131
88	0xbc2f6f35	-0.010707666
89	0x3b851876	0.004061754
90	0xbbc9a0e6	-0.006153214
91	0x3ba9e45c	0.0051846933
92	0x3b6f3560	0.003650032
93	0xbc086713	-0.008325356
94	0x3be4b446	0.006979498
95	0x3a831a18	0.0010002283

sequential_1/dense/MatMul f4 [3, 32]
0	0x3c8a43f7	0.016878111
1	0xbe3194d2	-0.17341927
2	0x3dd8e8b1	0.10591257
3	0xbec3c7e9	-0.38238457
4	0xbe4d64a4	-0.20057923
5	0xbd9326fd	-0.07185171
6	0xbf068d63	-0.5255949
7	0xbe23bca9	-0.15989937
8	0xbe8fac79	-0.28061274
9	0xbebbf665	-0.36711422
10	0xbe7a5046	-0.24444684
11	0xbeac8395	-0.3369414
12	0x3e033e28	0.1281668
13	0xbcecf3d2	-0.028924856
14	0x3ea970ff	0.33094022
15	0x3ebf674e	0.37383503
16	0x3e4a660e	0.19765493
17	0x3e7468bb	0.23868077
18	0x3e568936	0.2095078
19	0x3ece9475	0.4034764
20	0xbe56bfd2	-0.20971611
21	0xbec9e7ff	-0.3943481
22	0x3e5499e8	0.20761836
23	0x3eca692c	0.39533365
24	0x3de88208	0.113529265
25	0x3e6cab86	0.23112306
26	0xbec01f23	-0.37523755
27	0x3dec1b1d	0.11528609
28	0x3ed88b13	0.42293605
29	0x3ee871ce	0.45399326
30	0x3ee47441	0.44619945
31	0x3e22282d	0.15835638
32	0xbece17fd	-0.40252677
33	0xbe8ba9f1	-0.27278093
34	0x3ec2d6b8	0.38054442
35	0x3c4c1421	0.012455971
36	0xbe0dcfe1	-0.13848831
37	0xbe43ae26	-0.19109401
38	0x3d9f65cb	0.07783087
39	0xbee3bdc5	-0.4448072
40	0xbe06f740	-0.13180256
41	0x3da427ba	0.0801539
42	0x3ea49aaf	0.32149264
43	0xbdff7775	-0.124739565
44	0x3e9cad03	0.30600747
45	0x3edaa6f7	0.4270551
46	0xbe637b0f	-0.22214912
47	0x3e85712e	0.26062912
48	0x3d882758	0.06648129
49	0x3e673b72	0.2258127
50	0xbe045a9d	-0.12925191
51	0x3e00f39c	0.1259293
52	0xbea7b8b7	-0.32758114
53	0xbe66212e	-0.22473595
54	0xbe567006	-0.20941171
55	0xbd2e5e47	-0.04257038
56	0xbe20cfe6	-0.15704307
57	0x3e9bb95b	0.30414852
58	0xbde6ee5b	-0.112759314
59	0xbdf6a31a	-0.12042828
60	0x3d9e6228	0.077335656
61	0xbef6eaad	-0.48225918
62	0xbe472ef0	-0.19451499
63	0xbee4eda0	-0.44712543
64	0x3e583dc6	0.21117315
65	0x3e61461d	0.21999402
66	0x3ba983c7	0.00517318
67	0x3e2d626a	0.16932073
68	0x3ec36772	0.3816486
69	0x3e12a818	0.14321935
70	0x3ea28ad9	0.31746557
71	0xbd88cf20	-0.06680131
72	0x3e8fa8c6	0.2805845
73	0xbe20d63c	-0.15706724
74	0xbee64872	-0.44977146
75	0x3d8f4c04	0.06996921
76	0x3bcc4cb2	0.0062347287
77	0xbc0be5cb	-0.008538674
78	0x3ed99158	0.424937
79	0xbed5afa0	-0.41735554
80	0x3ed5e38c	0.41775167
81	0x3eb56d15	0.35434785
82	0xbd25d792	-0.040488787
83	0x3e4d8859	0.20071544
84	0x3eb2d20f	0.34925887
85	0x3d8ac0f8	0.06775087
86	0xbd52b66c	-0.051443502
87	0xbeaf3a59	-0.34224203
88	0x3eb537d1	0.35394147
89	0xbedceb62	-0.43148333
90	0xbbe831c1	-0.0070860093
91	0x3e291fc1	0.1651602
92	0x3e8edde9	0.2790368
93	0xbbb475c9	-0.005507205
94	0xbdc04fc5	-0.09390215
95	0x3ee8ba83	0.45454797

unstack6 f4 [192]
0	0xbdc2c3b2	-0.09509982
1	0xbd4ef68d	-0.050528098
2	0xbdc58630	-0.09644735
3	0xbdbb0db1	-0.09133471
4	0xbdb43e92	-0.08800997
5	0xbdb78383	-0.08960631
6	0xbd7e077f	-0.062018868
7	0x3d1b7b13	0.03795917
8	0xbd5072c4	-0.0508907
9	0xbda3acc3	-0.07991936
10	0xbdba54e9	-0.090982266
11	0xbdbd781a	-0.09251423
12	0x3d0c70b6	0.034287177
13	0xbdc784be	-0.097421154
14	0xbdb6c798	-0.08924788
15	0x3d8f68eb	0.070024334
16	0x3c9c9ff2	0.019119237
17	0xbdb65cd9	-0.08904428
18	0xbdbdb161	-0.09262348
19	0xbdccf24c	-0.10007152
20	0xbdc87da8	-0.09789592
21	0xbcf6c52e	-0.03012332
22	0xbdde5e7f	-0.108578674
23	0xbce77fca	-0.028259177
24	0x3d755cb3	0.059902858
25	0xbd335f85	-0.043792266
26	0xbd98c998	-0.07460326
27	0x3cb68824	0.022281714
28	0x3d16d6b3	0.036825847
29	0xbc581786	-0.013189202
30	0xbd948388	-0.0725165
31	0x3c72cc17	0.014819167
32	0xbd81a02c	-0.063293785
33	0x3d362b49	0.044474874
34	0x3cf0344d	0.029321814
35	0xbd647736	-0.05577775
36	0xbd8b2e7b	-0.06795975
37	0xbc4455ee	-0.011983378
38	0xbd3ca95f	-0.046059962
39	0x3cf72185	0.03016735
40	0x3c862af1	0.016377898
41	0xbdc390dc	-0.09549114
42	0x3d56f7b2	0.052482314
43	0xbda5fa74	-0.08104411
44	0xbdb81645	-0.089886226
45	0xbda6aec0	-0.081388
46	0xbc73511c	-0.014850881
47	0xbdcfb181	-0.10141278
48	0xbd33d689	-0.04390577
49	0xbdc2b061	-0.09506298
50	0xbc2c3a3b	-0.01051193
51	0xbd9047ba	-0.07044931
52	0x3d4d9d03	0.050198566
53	0xbd890475	-0.06690303
54	0xbdcc22f8	-0.09967607
55	0xbd84b404	-0.06479648
56	0x3a757268	0.0009363056
57	0x3cf07a5c	0.02935522
58	0xbd9f8d9c	-0.07790682
59	0xbdbd60df	-0.09246992
60	0xbcffd37e	-0.031228777
61	0xbc1fa307	-0.009743459
62	0x3bb67e44	0.0055692513
63	0xbd962e23	-0.07333019
64	0xbbf52fcc	-0.0074825045
65	0x3cca0552	0.02466074
66	0x3d490118	0.04907331
67	0x3d2b3f66	0.04180851
68	0xbc43b028	-0.011943854
69	0x3cae5a3d	0.021283263
70	0x3bf3fbd7	0.007445793
71	0x3cbf6aa6	0.023366284
72	0x3cf21de9	0.029555278
73	0xba1dbdb7	-0.00060173444
74	0x3c1b2bfa	0.009470934
75	0xbc671cb2	-0.014105963
76	0x3d953d14	0.0728704
77	0x3cffbba8	0.031217411
78	0x3cc21628	0.023692206
79	0x3d16fea0	0.036863923
80	0x3c6bda76	0.014395347
81	0x3d130796	0.035895906
82	0x3c47130b	0.012150536
83	0x3d1a8fd0	0.037734807
84	0x3adf7660	0.0017048828
85	0xbc100921	-0.008791239
86	0x3d1919ba	0.03737805
87	0x3d8614b5	0.06546918
88	0x3cbd4000	0.023101807
89	0x3c8f35ba	0.017481674
90	0x3d92ede5	0.07174281
91	0xbd69fd6c	-0.057126448
92	0x3d1139e8	0.035455614
93	0xbaffef5e	-0.0019526293
94	0x3c69762f	0.014249369
95	0x3982c4ab	0.0002494206
96	0x3cd56a2d	0.026051605
97	0x3cf20499	0.029543208
98	0x3cc64d07	0.024206651
99	0x3bad0bb8	0.005280938
100	0xba6b7f1c	-0.00089834793
101	0x3c0537f4	0.008131016
102	0x3ce2b0e2	0.027672235
103	0x3b632f40	0.0034665614
104	0x3c83763a	0.016047586
105	0x3d84bd41	0.0648141
106	0x3c954c54	0.018224873
107	0xbc32e1b9	-0.010918074
108	0xbcece309	-0.028916853
109	0x3c1c1594	0.009526629
110	0xbbc6816f	-0.00605791
111	0x3d21b4dd	0.039479125
112	0xbc4af9a1	-0.012388618
113	0x3ce2b5f4	0.027674653
114	0xbb58b0a1	-0.0033064263
115	0x3c503727	0.012708462
116	0xbd0b970e	-0.034079604
117	0xbb93d38f	-0.0045113037
118	0x3c67b759	0.014142835
119	0x3b02da69	0.0019966608
120	0x3d352794	0.044227198
121	0x3d0ee935	0.034890372
122	0x3c302bc2	0.01075262
123	0x3a0644c1	0.00051219395
124	0xbbdd92ba	-0.006761876
125	0x3ca22e99	0.01979761
126	0x3cd1c661	0.02560729
127	0xba6820b6	-0.0008854972
128	0xbc067a53	-0.008207875
129	0xbb098ed8	-0.0020989683
130	0x3bdd2e4c	0.006749904
131	0xbbdb5e98	-0.006694626
132	0x3b60765a	0.003425023
133	0xbc2aaf2a	-0.010417739
134	0xba89dae8	-0.001051751
135	0xbbb45b18	-0.0055040233
136	0x3c8f3280	0.017480135
137	0xb944f191	-0.00018782007
138	0xbc0c89fe	-0.008577822
139	0xbac9aef5	-0.0015387224
140	0xbc7cb3c5	-0.01542372
141	0xba483416	-0.0007637156
142	0xbba4f8ce	-0.0050345426
143	0x3abc8ef6	0.0014385867
144	0xbb88dfa2	-0.0041770497
145	0xbc2a4d47	-0.010394401
146	0x3a0a3124	0.0005271605
147	0x3bbff5e3	0.0058581694
148	0x3b868e7d	0.0041063414
149	0x3ba1baa8	0.0049355812
150	0x3b8aa372	0.00423091
151	0xbc76d7fd	-0.015066144
152	0xb8ef22e0	-0.00011402904
153	0x3aabe157	0.0013113421
154	0xbc33ede1	-0.010982008
155	0xbba6b8c9	-0.005087946
156	0xbcb2bf1c	-0.021819644
157	0x3b84c0aa	0.0040512877
158	0x3a90630f	0.001101585
159	0xbad501be	-0.001625113
160	0x3bef18bf	0.007296651
161	0xbbd17a2b	-0.0063927374
162	0xbc55edc0	-0.013057172
163	0x3c571f43	0.013130012
164	0xbb6c99c8	-0.0036102403
165	0x3b9ae4ba	0.0047269734
166	0x3b3ad1a5	0.0028506306
167	0xbacb9ad4	-0.0015533813
168	0x3b349612	0.002755527
169	0x3c37026e	0.011170013
170	0x39453b7c	0.00018809544
171	0x3c02eaf8	0.007990591
172	0x3b9aec2f	0.0047278623
173	0x3ab290c8	0.001362347
174	0xbb970600	-0.0046088696
175	0x3c07ad05	0.008280997
176	0xbbc0d954	-0.0058852825
177	0xbbafad64	-0.005361246
178	0x3bb8360a	0.0056216763
179	0xbc12fac7	-0.008970923
180	0x3c5ec54b	0.013596843
181	0x3b0047b5	0.001957399
182	0x3c04969b	0.008092548
183	0xba0873f0	-0.00052052643
184	0xbb8bf4b1	-0.004271113
185	0xbb656c9c	-0.0035007363
186	0xbc40775b	-0.011747207
187	0x395f52e3	0.00021297815
188	0xbad27737	-0.0016057257
189	0xbc3ef16e	-0.011654241
190	0xbb135d16	-0.0022485903
191	0xbb87e7bd	-0.0041474984

unstack7 f4 [192]
0	0xbdc2c3b2	-0.09509982
1	0xbd4ef68d	-0.050528098
2	0xbdc58630	-0.09644735
3	0xbdbb0db1	-0.09133471
4	0xbdb43e92	-0.08800997
5	0xbdb78383	-0.08960631
6	0xbd7e077f	-0.062018868
7	0x3d1b7b13	0.03795917
8	0xbd5072c4	-0.0508907
9	0xbda3acc3	-0.07991936
10	0xbdba54e9	-0.090982266
11	0xbdbd781a	-0.09251423
12	0x3d0c70b6	0.034287177
13	0xbdc784be	-0.097421154
14	0xbdb6c798	-0.08924788
15	0x3d8f68eb	0.070024334
16	0x3c9c9ff2	0.019119237
17	0xbdb65cd9	-0.08904428
18	0xbdbdb161	-0.09262348
19	0xbdccf24c	-0.10007152
20	0xbdc87da8	-0.09789592
21	0xbcf6c52e	-0.03012332
22	0xbdde5e7f	-0.108578674
23	0xbce77fca	-0.028259177
24	0x3d755cb3	0.059902858
25	0xbd335f85	-0.043792266
26	0xbd98c998	-0.07460326
27	0x3cb68824	0.022281714
28	0x3d16d6b3	0.036825847
29	0xbc581786	-0.013189202
30	0xbd948388	-0.0725165
31	0x3c72cc17	0.014819167
32	0xbd81a02c	-0.063293785
33	0x3d362b49	0.044474874
34	0x3cf0344d	0.029321814
35	0xbd647736	-0.05577775
36	0xbd8b2e7b	-0.06795975
37	0xbc4455ee	-0.011983378
38	0xbd3ca95f	-0.046059962
39	0x3cf72185	0.03016735
40	0x3c862af1	0.016377898
41	0xbdc390dc	-0.09549114
42	0x3d56f7b2	0.052482314
43	0xbda5fa74	-0.08104411
44	0xbdb81645	-0.089886226
45	0xbda6aec0	-0.081388
46	0xbc73511c	-0.014850881
47	0xbdcfb181	-0.10141278
48	0xbd33d689	-0.04390577
49	0xbdc2b061	-0.09506298
50	0xbc2c3a3b	-0.01051193
51	0xbd9047ba	-0.07044931
52	0x3d4d9d03	0.050198566
53	0xbd890475	-0.06690303
54	0xbdcc22f8	-0.09967607
55	0xbd84b404	-0.06479648
56	0x3a757268	0.0009363056
57	0x3cf07a5c	0.02935522
58	0xbd9f8d9c	-0.07790682
59	0xbdbd60df	-0.09246992
60	0xbcffd37e	-0.031228777
61	0xbc1fa307	-0.009743459
62	0x3bb67e44	0.0055692513
63	0xbd962e23	-0.07333019
64	0xbbf52fcc	-0.0074825045
65	0x3cca0552	0.02466074
66	0x3d490118	0.04907331
67	0x3d2b3f66	0.04180851
68	0xbc43b028	-0.011943854
69	0x3cae5a3d	0.021283263
70	0x3bf3fbd7	0.007445793
71	0x3cbf6aa6	0.023366284
72	0x3cf21de9	0.029555278
73	0xba1dbdb7	-0.00060173444
74	0x3c1b2bfa	0.009470934
75	0xbc671cb2	-0.014105963
76	0x3d953d14	0.0728704
77	0x3cffbba8	0.031217411
78	0x3cc21628	0.023692206
79	0x3d16fea0	0.036863923
80	0x3c6bda76	0.014395347
81	0x3d130796	0.035895906
82	0x3c47130b	0.012150536
83	0x3d1a8fd0	0.037734807
84	0x3adf7660	0.0017048828
85	0xbc100921	-0.008791239
86	0x3d1919ba	0.03737805
87	0x3d8614b5	0.06546918
88	0x3cbd4000	0.023101807
89	0x3c8f35ba	0.017481674
90	0x3d92ede5	0.07174281
91	0xbd69fd6c	-0.057126448
92	0x3d1139e8	0.035455614
93	0xbaffef5e	-0.0019526293
94	0x3c69762f	0.014249369
95	0x3982c4ab	0.0002494206
96	0x3cd56a2d	0.026051605
97	0x3cf20499	0.029543208
98	0x3cc64d07	0.024206651
99	0x3bad0bb8	0.005280938
100	0xba6b7f1c	-0.00089834793
101	0x3c0537f4	0.008131016
102	0x3ce2b0e2	0.027672235
103	0x3b632f40	0.0034665614
104	0x3c83763a	0.016047586
105	0x3d84bd41	0.0648141
106	0x3c954c54	0.018224873
107	0xbc32e1b9	-0.010918074
108	0xbcece309	-0.028916853
109	0x3c1c1594	0.009526629
110	0xbbc6816f	-0.00605791
111	0x3d21b4dd	0.039479125
112	0xbc4af9a1	-0.012388618
113	0x3ce2b5f4	0.027674653
114	0xbb58b0a1	-0.0033064263
115	0x3c503727	0.012708462
116	0xbd0b970e	-0.034079604
117	0xbb93d38f	-0.0045113037
118	0x3c67b759	0.014142835
119	0x3b02da69	0.0019966608
120	0x3d352794	0.044227198
121	0x3d0ee935	0.034890372
122	0x3c302bc2	0.01075262
123	0x3a0644c1	0.00051219395
124	0xbbdd92ba	-0.006761876
125	0x3ca22e99	0.01979761
126	0x3cd1c661	0.02560729
127	0xba6820b6	-0.0008854972
128	0xbbe2aeec	-0.006917825
129	0xbb8a98d4	-0.0042296443
130	0x3b629d69	0.0034578687
131	0xbc24a858	-0.010049902
132	0x3bec3ceb	0.0072094104
133	0xbc2ab4b1	-0.010419057
134	0xbb3e8cf7	-0.002907572
135	0xbb92f92d	-0.0044852705
136	0x3ca655fb	0.02030467
137	0xbb0c9697	-0.0021452063
138	0xbb1c4340	-0.0023843795
139	0xbbee2b3d	-0.007268338
140	0xbc6c4b13	-0.014422196
141	0x3b23a180	0.0024968088
142	0xbbc09216	-0.00587679
143	0x3b16683d	0.0022950314
144	0xbbd9afaf	-0.0066432576
145	0xbc460aa3	-0.012087497
146	0x3bf8ba92	0.0075906003
147	0x3c2ccc8b	0.010546814
148	0x3ba7c0c7	0.0051194164
149	0x3c0c546f	0.008565052
150	0x3b720b51	0.0036933015
151	0xbca255d5	-0.019816319
152	0xbbd5af2c	-0.0065211263
153	0xbb076425	-0.0020659056
154	0xbc22e41a	-0.009942079
155	0x3a5f4ea7	0.0008518495
156	0xbcbef958	-0.023312256
157	0x3bba4a2d	0.005685112
158	0xba224ad5	-0.00061909604
159	0x3ad10a0f	0.0015948432
160	0x3c4bd74f	0.01244147
161	0xbc0e3df4	-0.008681763
162	0xbc52550d	-0.0128376605
163	0x3c87caea	0.01657625
164	0xbb792fc2	-0.003802285
165	0x3bf00029	0.007324238
166	0x3b3b5fe9	0.0028591102
167	0xbaaac280	-0.0013027936
168	0x3be0af92	0.006856867
169	0x3ad661f1	0.0016356093
170	0x3b007ba8	0.0019604955
171	0x3c1184e9	0.008881786
172	0x3bc06ddb	0.005872471
173	0x369f852a	4.7540716e-06
174	0xbba418cc	-0.005007839
175	0x3c355277	0.011067024
176	0xbbb4c91d	-0.0055171386
177	0xbbad10d4	-0.005281547
178	0x3bf85726	0.0075787483
179	0xbc76c28f	-0.015061035
180	0x3c6b53eb	0.014363269
181	0x3b37f112	0.0028067273
182	0x3c112a41	0.008860172
183	0xbae314ef	-0.0017324964
184	0xbb428d53	-0.0029686287
185	0xbb3319a5	-0.0027328518
186	0xbc38ea6b	-0.011286358
187	0x3b4b2f96	0.0031003705
188	0x3aa57f67	0.001262647
189	0xbc30d4c1	-0.010792912
190	0xbaa71f39	-0.0012750394
191	0xbbeb8656	-0.007187645

while/MatMul_1 f4 [192, 64]
0	0x3e668550	0.22511792
1	0x3e2d1bd6	0.1690515
2	0xbd3a41b3	-0.045472812
3	0xbe18c61d	-0.14919324
4	0xbe341b7f	-0.17588614
5	0xbdf68cac	-0.1203855
6	0x3d8d5f71	0.0690297
7	0x3e75bd45	0.23997982
8	0x3d37dfca	0.044891156
9	0xbdf55f70	-0.11981094
10	0xbc828f1a	-0.015937377
11	0x3debc35c	0.11511871
12	0xbdbe9e1f	-0.09307503
13	0x3d1de301	0.038546566
14	0xbdc90c64	-0.098168164
15	0x3d5a3052	0.053268738
16	0x3d788512	0.06067378
17	0xbd105d65	-0.035245318
18	0x3e779db0	0.24181247
19	0x3dae622f	0.08514821
20	0x3cd91c44	0.026502736
21	0x3c01d5d6	0.007924518
22	0xbd9a907e	-0.07547091
23	0xbe065902	-0.13119891
24	0x3d7cab5e	0.061686866
25	0x3deb2b8a	0.11482914
26	0xbe06f84f	-0.1318066
27	0x3dcdb727	0.10044699
28	0xbdf04928	-0.117327034
29	0xbd197873	-0.037468385
30	0xbe3e53e5	-0.1858669
31	0xbe1ec3ca	-0.15504375
32	0x3c40ebcd	0.011774969
33	0xbe41edfe	-0.18938443
34	0xbe2c2fa8	-0.16815054
35	0x3e3c7043	0.184022
36	0xbdb95d1a	-0.09050961
37	0xbd78f6cf	-0.06078225
38	0xbe3327ca	-0.17495647
39	0xbdb8d9e3	-0.090259336
40	0x3d917fe7	0.071044736
41	0x3e217c0c	0.15769976
42	0xbdde9f2f	-0.108702056
43	0x3e48be7e	0.19603917
44	0xbe4096c6	-0.18807516
45	0x3d5aec81	0.053448204
46	0x3c407e70	0.011748895
47	0xbe8ce077	-0.27515003
48	0x3db87a73	0.0900773
49	0xbd45aa55	-0.048258144
50	0x3bc40e8e	0.0059831804
51	0xbdc56a24	-0.09639385
52	0x3db34456	0.087532684
53	0xbe46ce74	-0.19414693
54	0xbce0d057	-0.027443094
55	0x3dd6d9fb	0.10490795
56	0x3dad7932	0.08470382
57	0xbc972845	-0.01845182
58	0x3cd2ce2c	0.025733076
59	0xbdf49989	-0.11943347
60	0x3d04b7e5	0.032401938
61	0xbde8e1fa	-0.113712266
62	0x3db81abf	0.089894764
63	0xbd61a383	-0.055087578
64	0xbcc1c9c4	-0.02365578
65	0x3d458651	0.048223797
66	0xbca41618	-0.020030066
67	0xbda9468d	-0.082654096
68	0x3c861e86	0.016371977
69	0xbdf0be6a	-0.117550686
70	0x3cdc8526	0.026918959
71	0x3b9b0886	0.0047312407
72	0x3d7060a3	0.05868591
73	0xbd93fadb	-0.07225581
74	0xbdf35342	-0.118811145
75	0x3bd9b364	0.0066436995
76	0xbe4b4b19	-0.19852866
77	0xbc2ca37a	-0.010537023
78	0xbcd8dc9f	-0.026472388
79	0xbd9bf66c	-0.076153606
80	0x3e078092	0.1323264
81	0xbd117aa3	-0.035517346
82	0xbd3475b4	-0.044057563
83	0x3d80e8fc	0.06294438
84	0x3dc78a4e	0.097431764
85	0xbdb56977	-0.088580064
86	0xbd7d2166	-0.06179943
87	0x3dbe02ee	0.092779025
88	0xbd06206a	-0.032745756
89	0x3d97deeb	0.07415565
90	0xbde2d112	-0.11075033
91	0x3ce0faa9	0.027463274
92	0x3d4f97bc	0.050681815
93	0xbc6b8722	-0.01437548
94	0x3e0fa465	0.14027555
95	0xbdf7053a	-0.12061544
96	0x3d162067	0.036651995
97	0xbd99ef9e	-0.075164065
98	0xbcf14dae	-0.029455986
99	0x3ca4b6c0	0.020106673
100	0x3ca15164	0.01969213
101	0xbc885f64	-0.016647048
102	0xbd21fcbf	-0.039547678
103	0xbdd2addc	-0.10287067
104	0x3e035131	0.12823941
105	0x3d37d793	0.044883322
106	0xbc6442e1	-0.013931961
107	0x3df3478c	0.11878881
108	0xbd7efe6b	-0.06225435
109	0xbd1a647a	-0.03769348
110	0x3a76279a	0.00093900564
111	0x3d4b603d	0.049652327
112	0x3d0b2a34	0.033975795
113	0x3c5a606b	0.013328652
114	0x3d723ad6	0.05913814
115	0xbc2ad576	-0.01042687
116	0x3e0e26a4	0.13881928
117	0xbe0b7f9d	-0.136229
118	0xbc64939d	-0.013951209
119	0x3e0b48f0	0.13602042
120	0x3d8116a7	0.06303149
121	0x3dbee192	0.09320368
122	0xbe22d0eb	-0.15900008
123	0x3d4238b5	0.04741736
124	0x3dfebf1f	0.12438797
125	0xbc857ae1	-0.016293945
126	0x3dbf0d7b	0.09328743
127	0x3e6d287c	0.23159975
128	0x3ac3d1bc	0.0014939825
129	0xbd617f39	-0.05505297
130	0x3c364e8f	0.011127128
131	0xbdba8554	-0.091074616
132	0xbe08d816	-0.1336368
133	0xbdc93670	-0.09824836
134	0xbe0ecb39	-0.13944711
135	0x3e081b5f	0.13291691
136	0x3e361996	0.17783198
137	0xbd6aadbd	-0.057294596
138	0xbdce514e	-0.100741014
139	0x3de1e904	0.11030772
140	0xbde13f1e	-0.10998367
141	0xbe2f7ae5	-0.17136724
142	0x3d1b6136	0.037934504
143	0x3cbc4abe	0.022984859
144	0x3d5aa2e5	0.053378005
145	0xbd3b174c	-0.045676515
146	0x3db92252	0.09039749
147	0x3dce5c3f	0.10076188
148	0xbd862a74	-0.06551066
149	0xbe333fe0	-0.17504835
150	0xbae364eb	-0.0017348801
151	0x3c31ae25	0.010844742
152	0x3d15337a	0.036426045
153	0x3e026674	0.12734395
154	0xbd776bd6	-0.060405575
155	0x3e2da4d7	0.16957413
156	0xbcd7289a	-0.026264478
157	0xbcec7121	-0.028862538
158	0xbd6e4dfd	-0.058179844
159	0x3cf01e30	0.02931127
160	0x3d5f83e2	0.054569133
161	0xbde65643	-0.11246922
162	0xbde11b9b	-0.109915935
163	0xbc989264	-0.018624492
164	0xbd9c02a3	-0.076176904
165	0xbde8975c	-0.113569945
166	0xbcd4afe5	-0.02596278
167	0xbe8a49c8	-0.27009416
168	0x3dff3f26	0.124632165
169	0x3d270c3f	0.040783163
170	0xbd2a83c5	-0.04162957
171	0x3e897129	0.26844147
172	0x3d4ad570	0.049519956
173	0x3d80cae3	0.062886976
174	0xbc0a780c	-0.008451473
175	0x3cf851c5	0.030312428
176	0x3df6c0d2	0.12048496
177	0x3da97e45	0.08276037
178	0x3d605318	0.054766744
179	0xbc3e4092	-0.011612074
180	0x3e13264e	0.14370081
181	0xbdde1d34	-0.10845414
182	0x3b5206bf	0.0032047478
183	0x3dac1450	0.08402312
184	0xbd6460fd	-0.055756558
185	0x3e5c5b01	0.2151909
186	0xbd662b76	-0.05619379
187	0xbde08375	-0.109625734
188	0xbc28c4e8	-0.010300852
189	0xbd251668	-0.04030457
190	0x3c961309	0.018319624
191	0x39c82453	0.00038174036
192	0x3da87b61	0.08226658
193	0x3d18f76f	0.037345346
194	0xbbaa4d33	-0.005197191
195	0x3dac1665	0.08402709
196	0x3d3a5519	0.04549131
197	0xbd60a608	-0.05484584
198	0x3d1bc0a9	0.038025532
199	0x3def923a	0.116978124
200	0x3db551c9	0.0885349
201	0xbe0c04da	-0.13673726
202	0xbc5603e7	-0.013062454
203	0xbcd9626e	-0.026536193
204	0xbe299cdd	-0.16563745
205	0x3b8557ec	0.004069319
206	0xbda2b83c	-0.07945296
207	0x3d367283	0.0445428
208	0x3e899a77	0.2687566
209	0xbde6d061	-0.11270214
210	0xbd3dc610	-0.046331465
211	0x3e07aaeb	0.13248794
212	0x3cb9df2a	0.02268942
213	0xbe1dcb0d	-0.15409489
214	0xbe2c2b14	-0.16813308
215	0xbe156402	-0.14588931
216	0x3e0a4dd0	0.13506246
217	0x3dabcace	0.08388291
218	0xbcbfbe9a	-0.023406316
219	0x3d08e2e5	0.03341951
220	0x3aa219bf	0.0012367292
221	0x3d927967	0.07152062
222	0xbdc3e1aa	-0.095645264
223	0xbe474e62	-0.19463494
224	0xbcfbd7c8	-0.030742541
225	0xbd29e948	-0.04148224
226	0xbe197c40	-0.14988804
227	0x3dec266b	0.11530765
228	0x3cd80af9	0.02637242
229	0xbe4ea6b0	-0.20180774
230	0xbd2eac4b	-0.04264478
231	0x3c215f7b	0.0098494245
232	0x3d73b967	0.059502985
233	0x3ddfce6f	0.10928046
234	0xbe66b96c	-0.2253167
235	0x3de2b5a4	0.110698014
236	0xbd8d35f2	-0.06895055
237	0x3dc61672	0.0967225
238	0xbd1bdf18	-0.038054556
239	0xbd412e1f	-0.047163125
240	0x3d80fdea	0.0629843
241	0x3d3b7170	0.04576248
242	0x3e8129ea	0.2522729
243	0xbdce6f37	-0.10079806
244	0x3e0797e4	0.13241535
245	0x3bdf7d96	0.006820391
246	0x3ca14f5a	0.019691158
247	0xbacaff98	-0.001548755
248	0x3e14bb59	0.14524592
249	0x3dcaa0f6	0.09893982
250	0x3ca52945	0.02016128
251	0xbd53a7c9	-0.051673684
252	0x3dab3c32	0.08361091
253	0xbd527796	-0.051383577
254	0xbd3ea821	-0.04654706
255	0xbc3e528e	-0.011616362

while/MatMul f4 [192, 55]
0	0xbe5f66f8	-0.21816623
1	0xbe0931e4	-0.13397938
2	0x3d1c3613	0.038137507
3	0x3c8c0a26	0.017094683
4	0xbe4dbbac	-0.20091122
5	0xbdf93f24	-0.12170246
6	0xbc6248f3	-0.013811338
7	0x3d751b9c	0.059840783
8	0xbe17f5f8	-0.14839923
9	0xbbe5168b	-0.0069912127
10	0x3ce32173	0.02772591
11	0xbd7d5798	-0.061851114
12	0xbd29a6c7	-0.041418817
13	0xbe2463b8	-0.16053665
14	0xbe44d68e	-0.19222471
15	0xbe463bd2	-0.19358757
16	0x3d5934f7	0.053029027
17	0x3bee1a79	0.0072663394
18	0xbe6a4841	-0.22879125
19	0xbd0be4b0	-0.03415364
20	0xbe141742	-0.14461997
21	0x3c4b9830	0.012426421
22	0xbe29148e	-0.16511747
23	0xbda40447	-0.08008628
24	0xbd994c94	-0.07485309
25	0xbe343696	-0.17598948
26	0xbe37368d	-0.17891903
27	0xbe2f415c	-0.17114776
28	0xbcf4df44	-0.029891618
29	0x3c43a418	0.0119409785
30	0xbd591924	-0.05300249
31	0xbdf4bcbf	-0.11950063
32	0xbde9988e	-0.114060506
33	0xbdaa3c27	-0.083122544
34	0xbe2721c9	-0.16321482
35	0x3d669318	0.056292623
36	0x3cc0b0fa	0.023521889
37	0xbe4d3c35	-0.20042498
38	0xbc690096	-0.014221331
39	0xbe6020da	-0.21887532
40	0xbe0d1545	-0.13777645
41	0x3df7df1e	0.12103103
42	0xbd8e9288	-0.06961542
43	0xbe106962	-0.141027
44	0x3dad6ac3	0.08467629
45	0x3d131634	0.035909846
46	0xbe43f0b5	-0.19134791
47	0x3e4cf5bb	0.20015614
48	0xbd955ada	-0.07292719
49	0xbd506ab4	-0.05088301
50	0xbcac7d91	-0.021055968
51	0xbe34b10a	-0.1764566
52	0xbc4be623	-0.012445006
53	0x3cbf31e4	0.02333922
54	0x3d5dfa8b	0.054194015
55	0x3bb2f3f3	0.00546121
56	0xbd5b862b	-0.05359475
57	0xbe3c3aed	-0.18381853
58	0x3d56c4c4	0.052433744
59	0x3c9239d5	0.017849842
60	0xbdda4950	-0.106585145
61	0xbc498941	-0.01230079
62	0xbd4c3861	-0.049858455
63	0xbe153ac5	-0.145732
64	0xbd17c252	-0.037050553
65	0xbe391bf5	-0.18077071
66	0xbe27066b	-0.16311042
67	0xbe1eb422	-0.15498403
68	0x3da01798	0.07817
69	0xbdcc2b3b	-0.09969183
70	0x3da3b013	0.07992568
71	0xbd453b13	-0.04815204
72	0xbdcc6a80	-0.09981251
73	0xbdb7bdf8	-0.089717805
74	0xbe49d6af	-0.19710802
75	0x3c5aba0f	0.013350024
76	0x3d100f5a	0.03517089
77	0xbe344e50	-0.17607999
78	0xbd87df33	-0.06634369
79	0xbcac99e3	-0.021069473
80	0x3dcfd6bb	0.101483785
81	0xbdee1c48	-0.11626488
82	0xbc99a1a6	-0.018753838
83	0xbe3ab65e	-0.1823363
84	0xbbd3b26e	-0.0064604795
85	0xbda0cc6e	-0.07851492
86	0xbe12b9f6	-0.14328751
87	0x3daab43a	0.08335157
88	0x3d88a393	0.06671824
89	0x3c4195ea	0.011815527
90	0x3e2e50cb	0.17023008
91	0xbe4fd800	-0.20297241
92	0x3d31eaca	0.043436803
93	0x3e22f23a	0.15912715
94	0xbe4282a3	-0.18995146
95	0xbbad44e1	-0.005287752
96	0xbdc918e3	-0.098192
97	0xbd1d2897	-0.038368788
98	0xbe201499	-0.15632857
99	0x3c8ab446	0.016931664
100	0xbe3c24b5	-0.18373378
101	0xbd0573c2	-0.0325811
102	0xbd7d507f	-0.061844345
103	0xbe027074	-0.1273821
104	0xbd103e0a	-0.035215415
105	0x3dc776db	0.09739467
106	0x3e3b56f5	0.1829489
107	0x3d3fadb5	0.04679652
108	0xbdca80d4	-0.09887853
109	0xbde08de0	-0.109645605
110	0x3c9356e7	0.017985774
111	0xbe2e0028	-0.16992247
112	0xbd65eea5	-0.056135792
113	0xbe0b13a9	-0.13581719
114	0xbe65b2ac	-0.22431439
115	0xbe69ebb2	-0.22843817
116	0xbe549550	-0.20760083
117	0xbdc39368	-0.095496
118	0xbe2c197a	-0.16806594
119	0xbc87177c	-0.01649069
120	0xbe79a8b8	-0.24380767
121	0xbe3a7cd0	-0.18211675
122	0xbe2dc14d	-0.1696827
123	0xbdc2c322	-0.09509875
124	0xbbf88ac1	-0.0075849
125	0xbd77d0f0	-0.060501993
126	0xbc98bb5c	-0.018644027
127	0xbe7b6021	-0.24548389
128	0x3d0293b4	0.031879142
129	0xbe640d60	-0.22270727
130	0xbdf850e8	-0.12124807
131	0x3d712c37	0.058880057
132	0xbceced79	-0.02892183
133	0x3e32ee8e	0.17473814
134	0xbe70e03b	-0.23523037
135	0x3cf5c55b	0.030001333
136	0xbde581e3	-0.112064146
137	0xbd537e8c	-0.051634356
138	0xbde92ac4	-0.1138511
139	0x3e05c8f4	0.13064939
140	0xbcb8ef1c	-0.022574954
141	0xbe76c2e5	-0.24097784
142	0xbe01e1bd	-0.12683769
143	0xbcc9c87b	-0.02463173
144	0x3cc2f3d6	0.02379791
145	0x3e520b5f	0.2051215
146	0xbd817a43	-0.06322148
147	0xbe34f1bd	-0.17670341
148	0xbdceee0b	-0.10103997
149	0xbe04abbe	-0.1295614
150	0xbdafb163	-0.08578756
151	0x3e00a800	0.12564087
152	0xbe161292	-0.14655522
153	0xbdbc8b0f	-0.09206211
154	0xbcccf130	-0.02501735
155	0x3d781ca5	0.060574193
156	0xbe384684	-0.1799565
157	0x3d1fbff9	0.03900144
158	0xbd14b071	-0.03630108
159	0xbe5cfece	-0.21581575
160	0xbd883d13	-0.06652274
161	0xbd20def8	-0.03927514
162	0x3cd76c37	0.026296718
163	0xbe5a2019	-0.21301307
164	0xbe633ef0	-0.22191978
165	0xbe0999d3	-0.13437586
166	0x3c22c578	0.0099347755
167	0xbe563471	-0.20918442
168	0x3d2ede70	0.0426926
169	0xbe0a7e42	-0.13524726
170	0xbd5f55cd	-0.054525185
171	0x3c46b8f5	0.012129058
172	0x3d0f0937	0.034920897
173	0xbe7b1edb	-0.24523489
174	0xbe5e742c	-0.21724004
175	0xbe377788	-0.17916691
176	0xbe30929d	-0.17243429
177	0x3d6eb3c9	0.058276925
178	0xbe2abeee	-0.16674396
179	0xbd422a48	-0.047403604
180	0xbde4c95c	-0.11171219
181	0xbd880f95	-0.06643597
182	0x3bd0469f	0.006356075
183	0xbe39b570	-0.18135619
184	0xbe137cbe	-0.14403054
185	0xbe487f6c	-0.19579858
186	0xbdb00fc2	-0.085967556
187	0xbe6a2cdd	-0.22868676
188	0x3e071198	0.13190305
189	0x3d33d559	0.043904636
190	0xbdf15198	-0.11783141
191	0xbe24caaf	-0.16092943
192	0xbdb3a585	-0.08771805
193	0xbdf06c2d	-0.11739383
194	0x3d4a6788	0.04941514
195	0xbe388365	-0.18018873
196	0x3d012a71	0.031534616
197	0xbd21f80a	-0.03954319
198	0xbe719fa5	-0.23596056
199	0xbc1f113e	-0.009708701
200	0x3db85964	0.09001425
201	0xbe6d1632	-0.23152998
202	0xbdee5089	-0.116364546
203	0x3e001fe9	0.12512173
204	0xbe0146d2	-0.12624672
205	0xbe4a9c7c	-0.19786257
206	0xbad94841	-0.001657732
207	0xbd027454	-0.03184922
208	0xbde34f53	-0.11099114
209	0xbdb36b17	-0.0876066
210	0x3d60917e	0.054826252
211	0xbe0b659b	-0.13612978
212	0x3e0dfd92	0.1386626
213	0xbcae4311	-0.021272214
214	0x3cc7b2b9	0.024377214
215	0xbd27c4f4	-0.040959314
216	0x3d604766	0.05475559
217	0x3d596683	0.05307628
218	0xbd558500	-0.05212879
219	0xbe262445	-0.16224773
220	0x3d2fdd54	0.042935684
221	0xbde5fc07	-0.11229711
222	0x3bd1b826	0.006400126
223	0xbd4b9373	-0.049701165
224	0x3c687bf8	0.014189713
225	0xbd9fb735	-0.07798616
226	0xbe188cd1	-0.14897467
227	0xbe1d06bc	-0.153346
228	0x3d77dc19	0.060512636
229	0xbd4e730a	-0.05040268
230	0x3dab7e41	0.083736904
231	0xbdca1fb8	-0.09869331
232	0x3d1f4da4	0.038892403
233	0x3d9ad1d9	0.075595565
234	0x3d5334dc	0.051564083
235	0x3d906ddf	0.07052206
236	0xbc96ef72	-0.018424723
237	0xbc09233b	-0.008370216
238	0xbe5274e8	-0.20552409
239	0x3d68c7b6	0.056831084
240	0x3d448c16	0.04798516
241	0xbcfeb601	-0.031092646
242	0xbd703b5a	-0.058650352
243	0x3def0246	0.116703555
244	0x3d70b8bc	0.058769926
245	0xbe14ff81	-0.14550592
246	0xbe3918b6	-0.18075833
247	0xbce3dc8f	-0.027815131
248	0xbe2f4aa0	-0.17118311
249	0xbc11d482	-0.0089007635
250	0xbe16efba	-0.14739886
251	0xbd6ef484	-0.058338657
252	0xbe32224c	-0.17395896
253	0xbdc66251	-0.09686721
254	0xbe399818	-0.18124425
255	0xbc5e025f	-0.01355037

unstack8 f4 [96]
0	0xbdc27371	-0.09494675
1	0xbcc18ad2	-0.023625765
2	0xbc01752f	-0.007901474
3	0xbde19334	-0.11014405
4	0x3d46f1a0	0.048570275
5	0xbdf259c5	-0.118335284
6	0x3c9cbcab	0.019132933
7	0xbdce7df3	-0.10082617
8	0x3d33e1e9	0.043916617
9	0xbd31a80e	-0.04337316
10	0xbdcfb2f6	-0.10141556
11	0xbd03b8f5	-0.03215881
12	0x3c9c04f4	0.01904533
13	0xbdea2b2b	-0.11434015
14	0x3d59adbf	0.053144213
15	0xbdf097d4	-0.11747709
16	0xbdd6cb70	-0.104880214
17	0xbd24e4db	-0.040257316
18	0xbdb1a3b6	-0.086738035
19	0x3dcfa4ed	0.10138879
20	0xbdd515bb	-0.104045354
21	0xbd4ffe6a	-0.050779738
22	0xbde28ffb	-0.11062618
23	0xbe00af89	-0.12566961
24	0xbe04ebdb	-0.12980597
25	0xbdece260	-0.11566615
26	0x3beecba3	0.007287459
27	0xbdf9147b	-0.121621095
28	0xbd2a3af4	-0.04156013
29	0xbde67e87	-0.11254602
30	0xbe0692ca	-0.13141933
31	0xbdf7665f	-0.120800726
32	0xbc71cfb0	-0.014758989
33	0x3b54e5eb	0.0032485675
34	0x3d02e734	0.031958774
35	0xbc3a27c7	-0.011362023
36	0x3d230e69	0.039808664
37	0x3c6a9dc5	0.014319842
38	0x3c893170	0.016747206
39	0x3c6cf06b	0.014461617
40	0x3c258a34	0.010103751
41	0xbc395669	-0.011312106
42	0x3c9957fc	0.018718712
43	0xbc934ed0	-0.017981917
44	0x3cfed30c	0.031106494
45	0xba09f5ab	-0.00052627426
46	0x3bc7979c	0.0060910713
47	0x3d181941	0.03713346
48	0x3d06ed9e	0.032941453
49	0x3cab8723	0.020938462
50	0x3baf4097	0.005348276
51	0xbd016939	-0.03159449
52	0x3cddc7b6	0.027072769
53	0x3d0986d8	0.033575863
54	0x3d120775	0.035651643
55	0x3ceda674	0.029010035
56	0x3ce7d8c9	0.028301613
57	0x3d6323ac	0.05545394
58	0x3ca3a295	0.019974986
59	0xbbd2f819	-0.006438267
60	0x3d0737d6	0.033012234
61	0x3d2ab878	0.04167983
62	0xbcb0fd83	-0.021605259
63	0x3c804210	0.015656501
64	0x3b90070c	0.0043953713
65	0xbc7a8e4c	-0.015292715
66	0x3cc5269f	0.024066268
67	0x3a5c22ba	0.00083975086
68	0xbb8cab20	-0.0042928606
69	0xb9ca85a8	-0.00038628024
70	0xbbc2a2c1	-0.005939812
71	0x3c32389d	0.0108777555
72	0x3b7a57e6	0.0038199364
73	0x3b1b508c	0.0023699133
74	0x3b04ff59	0.00202938
75	0xbbb73183	-0.005590619
76	0x3b62173f	0.003449872
77	0xbbe11833	-0.00686934
78	0xbb57d7f3	-0.0032935112
79	0xbab8f2d7	-0.0014110458
80	0x3ae4fa88	0.0017469684
81	0xbbcbf346	-0.006224069
82	0x3bb4f605	0.005522492
83	0xbaebdde9	-0.0017995212
84	0xbc7927b6	-0.015207222
85	0xbc990ddc	-0.018683366
86	0x3bdf0f22	0.006807224
87	0xb8d2a9a9	-0.00010045182
88	0xbbbbfe73	-0.00573712
89	0x3a1b727d	0.0005929841
90	0x3bede67a	0.007260141
91	0xbacecb09	-0.0015777062
92	0x3bef9729	0.007311721
93	0x3958ab9a	0.00020663292
94	0x3c21b028	0.009868659
95	0xba88bf35	-0.0010432961
